src/pretrained/adv_params.pt (torch_old, 623081 bytes, 204 tensors)

in_fn.weight f4 [8]
0	0x3eedacbb	0.46420845
1	0x3f2151ba	0.6301533
2	0x3efb5b2b	0.49092993
3	0x3f0d23fe	0.55133045
4	0x3f002bcb	0.5006682
5	0x3f0f0f8f	0.55883116
6	0x3f050c61	0.51972014
7	0x3f083e0b	0.5321967

in_fn.bias f4 [8]
0	0xbc976eec	-0.018485509
1	0xbd581d3a	-0.052762248
2	0x3de4aff1	0.11166371
3	0xbd1c08d2	-0.03809435
4	0xbd5a1e70	-0.053251684
5	0xbdf1d381	-0.11807919
6	0xbbfc540a	-0.007700448
7	0xbdeec610	-0.11658871

in_fn.running_mean f4 [8]
0	0xbd284a1a	-0.041086294
1	0xbc142ca0	-0.009043843
2	0xbd2f4dcf	-0.042798813
3	0xbd188870	-0.037239492
4	0xbd01cffa	-0.031692483
5	0xbd480c0f	-0.048839625
6	0xbda25824	-0.07926968
7	0xbdbed152	-0.093172684

in_fn.running_var f4 [8]
0	0x3ea8c5d0	0.3296342
1	0x3eafa5a5	0.34306064
2	0x3ea87812	0.32904106
3	0x3ea86b14	0.32894194
4	0x3efed193	0.49769267
5	0x3f1818ef	0.59413046
6	0x3ef501e3	0.47853002
7	0x3eb2359a	0.3480652

fc1.weight f4 [64, 8]
0	0x3eb4b3ab	0.35293326
1	0x3e3f7c12	0.18699673
2	0xbf23fafc	-0.64054847
3	0xbf69f866	-0.9139465
4	0xbf0cd5b3	-0.5501358
5	0x3c6c7460	0.014432043
6	0x3f99b49f	1.2008246
7	0x3fb48be3	1.410519
8	0xbe875dbc	-0.264387
9	0x3f45a637	0.7720675
10	0xbdae9dfd	-0.085262276
11	0x3f6dcadd	0.9288767
12	0xbdc21cb4	-0.09478131
13	0xbdb7a2be	-0.089665875
14	0xbf876092	-1.0576346
15	0xbd83fe70	-0.064450145
16	0x3f1daf39	0.61595494
17	0xbfb0e8e0	-1.3821068
18	0xbb9bf771	-0.004759722
19	0xbe80144d	-0.25015488
20	0xbf817a7a	-1.0115502
21	0x3fea17b2	1.8288481
22	0xbccb34aa	-0.024805386
23	0xbd7cfad6	-0.061762653
24	0x3d8367cc	0.06416282
25	0xbd299366	-0.041400336
26	0x3f8c9559	1.0983077
27	0xbf96be18	-1.1776762
28	0xbfda78a9	-1.7068073
29	0x3fc5fe29	1.5468189
30	0x3d58d16d	0.0529341
31	0xbddf34e6	-0.108987615
32	0x3ebb7dcf	0.36619422
33	0xbfddf62e	-1.7340753
34	0x3d7f6cb0	0.06235951
35	0xbdf284dc	-0.11841747
36	0x3d46fbc4	0.048579946
37	0x3d3c2b43	0.045939695
38	0xbecf28b9	-0.40460756
39	0x3ff2d290	1.8970509
40	0x3df19366	0.11795692
41	0xbec704e1	-0.3887091
42	0x3e1eaa8c	0.15494746
43	0xbece4bec	-0.402923
44	0x3f09e082	0.53858197
45	0xbf4f9821	-0.81091505
46	0x3da2a7f2	0.07942189
47	0x3f24b836	0.64343584
48	0x3eb615d1	0.3556352
49	0x3f835c16	1.0262477
50	0x3f093421	0.5359517
51	0x3f9a697d	1.2063442
52	0x3dc427ad	0.0957788
53	0xbdb37c8e	-0.08763991
54	0xbd5ada6a	-0.053430952
55	0xbeed3183	-0.46326837
56	0x3f624bbd	0.8839682
57	0xbf8c9a8c	-1.0984664
58	0xbea79f27	-0.3273861
59	0xbf0d8ec1	-0.5529595
60	0xbc93ecf4	-0.018057324
61	0xbe6ed659	-0.23323955
62	0xbec6adc0	-0.38804436
63	0x3fc5271a	1.5402558
64	0x3d599675	0.053122003
65	0xbd489749	-0.0489724
66	0xbe5fce9e	-0.21856162
67	0xbe0da4b9	-0.13832368
68	0x3f6a5bb6	0.9154619
69	0x3fa37372	1.2769606
70	0xbf2147f4	-0.63000417
71	0x3f61b2cf	0.88163465
72	0x3eb3e46c	0.3513521
73	0x3eb4ba91	0.3529859
74	0x3f62a7ad	0.885371
75	0x3f65b9e2	0.8973676
76	0xbec52e6a	-0.38511974
77	0x3f2fe06d	0.6870182
78	0xbf78547f	-0.9700393
79	0xbfb06973	-1.378218
80	0xbb45cd92	-0.0030182344
81	0x3d818978	0.06325048
82	0xbf5a9235	-0.85379344
83	0xbff70eb8	-1.9301367
84	0xbd54a068	-0.051910788
85	0xbe23d136	-0.15997776
86	0x3f5cb981	0.86220556
87	0x3ff938d4	1.9470468
88	0x3f953bd1	1.165888
89	0x3ee5c55d	0.4487714
90	0x3ed58f5e	0.41710943
91	0xbe451e80	-0.19249916
92	0x3e26a802	0.16275027
93	0xbd07de66	-0.03317108
94	0xbff7c9a4	-1.9358411
95	0xbf51e015	-0.8198255
96	0x3fdf3d63	1.7440609
97	0xbcb0344b	-0.02150931
98	0xbfa6fe53	-1.3046364
99	0x3e14a7e7	0.14517175
100	0x3d6e2ae4	0.058146372
101	0xbd92a3ad	-0.07160125
102	0xbf2b9a59	-0.6703239
103	0xbda2ff72	-0.079588786
104	0xbf823d41	-1.0174943
105	0xbf0a7312	-0.54081833
106	0xbf3142a4	-0.6924231
107	0x3d25b370	0.040454328
108	0x3d66a02b	0.05630509
109	0x3f6d3fb1	0.9267531
110	0x3eb22c84	0.34799588
111	0x3ef8b559	0.48575857
112	0x3eb7920f	0.3585362
113	0xbe47563e	-0.19466493
114	0x3f4ee94e	0.80824745
115	0xbe41e7f1	-0.18936135
116	0x3f8d2143	1.1025776
117	0x3e5f06b1	0.21779896
118	0x3d8d5f32	0.06902923
119	0x3e0322cd	0.12806244
120	0xbec51223	-0.384904
121	0x3e17fb06	0.14841852
122	0xbfb557dc	-1.4167438
123	0xbe4337c4	-0.19064242
124	0xbea9444e	-0.33059925
125	0xbefe536a	-0.49673015
126	0xbf044f97	-0.51683944
127	0xbe686de2	-0.22698167
128	0xbf093219	-0.5359207
129	0xbda41ff6	-0.080139086
130	0xbef0a745	-0.47002617
131	0xbeaf5d02	-0.34250647
132	0xbe4bb7a2	-0.19894269
133	0xbd23c2a6	-0.039980553
134	0x3ff69b5e	1.9266164
135	0xbf10ef43	-0.56615084
136	0x3e6681c0	0.22510433
137	0xbf9b39e3	-1.2127041
138	0x3d564fba	0.052322127
139	0x3f896a8a	1.0735638
140	0xbe786306	-0.24256524
141	0x3fab77ba	1.3395913
142	0x3f072bd5	0.5280126
143	0xbc7f267b	-0.015573139
144	0xbf901cad	-1.1258751
145	0xbedaaa65	-0.42708126
146	0x3f8db1c6	1.1069877
147	0x3f386748	0.72032595
148	0x3d274166	0.040833853
149	0xbdbea5d1	-0.09308971
150	0xbeb2b9b0	-0.34907293
151	0xbe5da7ee	-0.21646091
152	0xbda42bdd	-0.08016179
153	0x3e466bd2	0.19377068
154	0x3fab947f	1.3404692
155	0xbece577a	-0.40301114
156	0x3f23b47f	0.6394729
157	0x3cd6bb5f	0.026212392
158	0xbe02dc2f	-0.12779306
159	0x3f1e8b06	0.6193088
160	0xbfa16b14	-1.2610803
161	0xbf487011	-0.78296
162	0xbf82a7c0	-1.0207443
163	0xbf903352	-1.1265662
164	0x3e5f2d61	0.21794654
165	0x3d30a3dc	0.04312502
166	0x3e6c34f0	0.23067069
167	0x3e66016e	0.22461483
168	0x3d63c6b7	0.05560943
169	0xbf89f6c7	-1.0778435
170	0x3f91f844	1.140389
171	0xbf9887ce	-1.1916444
172	0xbf10421f	-0.5635089
173	0x3ee81527	0.45328638
174	0xbee976ef	-0.45598552
175	0x3fbacbb1	1.4593412
176	0x3f42f150	0.76149464
177	0xbf43b092	-0.764413
178	0xbd7b6428	-0.061374813
179	0xbea5d145	-0.32386222
180	0xbfca3272	-1.5796645
181	0x3e1a30b3	0.1505764
182	0x3e8ba0ca	0.2727111
183	0x3f8d7710	1.105196
184	0xbd341b92	-0.043971606
185	0xbe6262a1	-0.22107936
186	0xbfaed536	-1.3658817
187	0xbece7c39	-0.4032915
188	0x3f88214f	1.0635165
189	0x3f06346f	0.5242376
190	0x3fb4c0a7	1.4121293
191	0x3e89ab40	0.26888466
192	0xbf79c9db	-0.9757363
193	0xbfe32428	-1.7745409
194	0xbe415ed9	-0.18883838
195	0x3d9feb2c	0.07808527
196	0xbb39a67e	-0.0028327997
197	0x3de1b8d9	0.11021585
198	0x3e730591	0.23732592
199	0x3b130a24	0.0022436464
200	0x3e2d5f19	0.16930808
201	0xbccadcd2	-0.024763498
202	0xbf351ef5	-0.7075036
203	0xbfa7da46	-1.3113487
204	0xbef9a5c2	-0.48759276
205	0x3fa56b6c	1.2923408
206	0x3f7db286	0.9910053
207	0x3ea9f2a6	0.3319294
208	0xbe9ce31f	-0.3064203
209	0x3f7c2d3f	0.9850654
210	0xbb7800c8	-0.0037842263
211	0xbf56efd6	-0.8395971
212	0xbf98f4e9	-1.1949741
213	0x3e85df14	0.26146758
214	0x3e949813	0.29022273
215	0xbe3fd1df	-0.18732403
216	0xbf2620b6	-0.6489366
217	0xbfc31bc8	-1.5242853
218	0x3cb7342f	0.02236375
219	0xbed8dae0	-0.42354488
220	0x3f0b7d07	0.5448765
221	0x3fd68c58	1.676158
222	0x3f128be9	0.57244736
223	0x3e86a40b	0.2629703
224	0xbfbbf4ed	-1.468412
225	0x3ec69482	0.38785177
226	0xbeebff9c	-0.46093452
227	0x3e934995	0.28767076
228	0xbf00d1a2	-0.50319874
229	0xbe35a759	-0.1773962
230	0x3e3d55e2	0.18489793
231	0xbe73fd52	-0.23827103
232	0xbf45957d	-0.77181226
233	0x3f416c18	0.7555556
234	0x3fae8ff2	1.3637679
235	0xbfc269c0	-1.5188522
236	0x3e859266	0.26088256
237	0xbea09486	-0.31363314
238	0xbf34d76a	-0.70641196
239	0x3ec1cae1	0.37850097
240	0xbf01a634	-0.5064423
241	0x3fcb3916	1.5876796
242	0x3c6ea711	0.014566199
243	0xbe7b04eb	-0.24513595
244	0x3e4c6ed5	0.19964154
245	0x3d9842dd	0.07434628
246	0x3eaa87e3	0.33306798
247	0xbf0006b9	-0.5001026
248	0xbf5a9437	-0.8538241
249	0x3f6e898d	0.93178636
250	0xbf01ba81	-0.5067521
251	0x3ed16134	0.40894473
252	0x3fa88ea8	1.3168535
253	0xbf97b9bd	-1.1853558
254	0x3e6bcceb	0.23027389
255	0xbef0b86e	-0.4701571

fc1.bias f4 [64]
0	0xbf65bff9	-0.8974605
1	0xbed8409c	-0.42236793
2	0xbe8b7b6d	-0.27242604
3	0xbe41bca8	-0.18919623
4	0xbdfcd02a	-0.12344392
5	0x3e79a17b	0.24378006
6	0x3df8709c	0.121308535
7	0xbf57efd1	-0.84350306
8	0xbeb8e0d4	-0.3610903
9	0xbf45e0f2	-0.77296364
10	0x3ca0dc60	0.019636333
11	0xbf10d0f9	-0.56568867
12	0xbe1c44d9	-0.15260638
13	0xbedd5204	-0.43226635
14	0x3f1f63d1	0.6226168
15	0xbfa0c405	-1.255982
16	0x3e18d102	0.1492348
17	0xbf58e552	-0.84724915
18	0xbf25a34f	-0.64702314
19	0xbf466f27	-0.77513355
20	0xbfb9798a	-1.4490216
21	0xbf679d63	-0.9047453
22	0xbf87d2f4	-1.0611253
23	0xbf68f395	-0.90996677
24	0xbf8c54d4	-1.0963387
25	0xbf9b4fd9	-1.2133743
26	0xbfc1c0e7	-1.5136994
27	0xbf2f8c01	-0.68573004
28	0xbfbd0f60	-1.4770317
29	0xbf554704	-0.83311486
30	0xbeec2a6c	-0.46126115
31	0xbeccb651	-0.39982846
32	0xbeff2d16	-0.49839085
33	0xbe862aca	-0.2620452
34	0xbf74215d	-0.9536341
35	0xbf29542d	-0.6614407
36	0xbf60e972	-0.8785621
37	0xbf8295cc	-1.0201964
38	0xc0164cd1	-2.3484385
39	0xbf931bab	-1.1492819
40	0xbf610d10	-0.87910557
41	0xbed6a2a1	-0.4192095
42	0xbf7c3778	-0.9852214
43	0xbf15c2a0	-0.585001
44	0xbea2e957	-0.3181865
45	0xbf9ddb02	-1.2332461
46	0x3dcaefef	0.09909045
47	0xbf5a2e6d	-0.8522709
48	0xc004b9b0	-2.0738335
49	0xc00ddd08	-2.2166157
50	0xbfe67850	-1.8005466
51	0x3ddbde5b	0.1073577
52	0xbee1c0de	-0.44092458
53	0x3d2e4c35	0.042553145
54	0xbf13f21e	-0.57791317
55	0xbf22b7b0	-0.63561535
56	0xbf9dab66	-1.2317932
57	0xbe3ae36c	-0.18250817
58	0x3e65d1c3	0.22443299
59	0xbf50e223	-0.8159506
60	0xbf152098	-0.5825286
61	0xbfa404df	-1.2813987
62	0xbe3e6a54	-0.18595248
63	0xc004c9c1	-2.074814

fc2.weight f4 [64, 64]
0	0xbde13297	-0.10995977
1	0xbe1c9e45	-0.1529475
2	0xbd08d0be	-0.033402197
3	0x3c86ccdb	0.016455105
4	0xbd80f572	-0.06296815
5	0xbe558dba	-0.20854846
6	0xbe471765	-0.19442518
7	0xbdbc0b65	-0.09181861
8	0xbe0e7536	-0.139119
9	0xbe1770d2	-0.14789131
10	0xbdedcedd	-0.11611722
11	0xbd7c908d	-0.061661292
12	0xbc9111c2	-0.017708663
13	0xb96d79e7	-0.00022647493
14	0xbe056d35	-0.1302994
15	0xbdbd45d3	-0.092418335
16	0xbd8cfa0e	-0.06883632
17	0x3cd35c3f	0.025800822
18	0xbd969edd	-0.073545195
19	0xbd6d491e	-0.057931058
20	0xbe661e3f	-0.22472475
21	0xbcd44b85	-0.025914917
22	0x3d126b81	0.035747055
23	0x3d8a0b0f	0.067403905
24	0xbe74f390	-0.23921037
25	0xbded7fb5	-0.11596624
26	0xbe3da8d8	-0.1852144
27	0x3d3087f1	0.043098394
28	0xbdd8a448	-0.10578209
29	0xbe1e73a3	-0.154738
30	0x3b087c7d	0.0020826154
31	0xbe386909	-0.18008818
32	0xbdbf9bd4	-0.09355894
33	0xbe106a52	-0.14103058
34	0xbe0d5e61	-0.13805534
35	0xbda2c928	-0.07948524
36	0x3d120da5	0.035657544
37	0xbe0829f1	-0.1329725
38	0xbd787cea	-0.060666002
39	0xbb98aa0a	-0.004658942
40	0xbcef0c94	-0.029180802
41	0xbdd61615	-0.104534306
42	0x3cf150b9	0.029457437
43	0xbd54682c	-0.05185716
44	0xbe033a65	-0.12815244
45	0x3def363b	0.116802655
46	0xbcfeaca6	-0.031088185
47	0xbe569ad6	-0.20957503
48	0xbe07395e	-0.13205478
49	0xbe16253b	-0.1466264
50	0x3ce39dbe	0.027785178
51	0xbdf67826	-0.12034635
52	0xbe3e9e98	-0.18615186
53	0xbddd5676	-0.10807507
54	0xbbd9dd05	-0.006648662
55	0x3db9c3db	0.090705596
56	0xbd9530f4	-0.07284728
57	0x3d24fd45	0.0402806
58	0xbcb9e07f	-0.022690056
59	0xbdd0a9bc	-0.10188624
60	0xbb59ac74	-0.0033214362
61	0xbe5cef74	-0.21575719
62	0xbd2677c4	-0.04064156
63	0xbd211a82	-0.03933192
64	0xbdbc65be	-0.09199093
65	0xbc76bfb4	-0.015060354
66	0x3cf2699f	0.02959138
67	0xbe0fc9b4	-0.14041787
68	0xbe2443fa	-0.16041556
69	0x3c4f086f	0.012636288
70	0xbe3234ba	-0.17402926
71	0x3c55d7fc	0.013051983
72	0xbe5670b0	-0.20941424
73	0xbe2cecaf	-0.16887163
74	0xbc2e8f7c	-0.0106543265
75	0xbe24d963	-0.16098551
76	0x3dc41c47	0.09575706
77	0xbe0c264b	-0.13686483
78	0xbe6f0a09	-0.23343672
79	0xbe27dddf	-0.16393231
80	0xbd9a6272	-0.07538308
81	0x3e05ef6c	0.13079613
82	0xbe2e5745	-0.17025478
83	0xbd75fbc4	-0.060054556
84	0xbd734569	-0.059392367
85	0xbe295ccc	-0.16539305
86	0xbca70cf8	-0.020391926
87	0xbe1614bf	-0.14656352
88	0xbd086f1e	-0.033309095
89	0x3d29fa50	0.041498482
90	0xbe1a5570	-0.15071654
91	0x3c128327	0.008942402
92	0xbde43d27	-0.111444764
93	0xbd2b35c0	-0.041799307
94	0xbe28f5d8	-0.16500032
95	0xbdcde05c	-0.10052559
96	0xbe1e5983	-0.15463834
97	0xbd56170f	-0.052268084
98	0x3d44d6e7	0.04805651
99	0xbcfc0fad	-0.030769194
100	0xbd989f53	-0.07452264
101	0xbdf4c148	-0.11950928
102	0xbd5e25b6	-0.054235183
103	0xbe09b3fd	-0.13447566
104	0x3dceccf3	0.10097685
105	0xbe146976	-0.14493355
106	0xbde71200	-0.1128273
107	0xbd88064e	-0.066418275
108	0xbb4402b4	-0.0029908838
109	0x3be02a3b	0.0068409718
110	0xbdaaed17	-0.083460025
111	0xbe36ee65	-0.17864378
112	0x3c0c87bf	0.008577286
113	0x3c2bb1bc	0.010479387
114	0x3de35be2	0.1110151
115	0xbdfac3ff	-0.122444145
116	0x3d8679e0	0.065662146
117	0x3c65959d	0.014012721
118	0xbd86509d	-0.065583445
119	0xbe429a15	-0.1900409
120	0xbd86edf1	-0.065883525
121	0xbe2d382d	-0.1691596
122	0xbd84ebe0	-0.06490302
123	0xbdcf7a5d	-0.10130761
124	0xbe446c4a	-0.19181934
125	0xbd2817b1	-0.04103822
126	0xbe68c4a4	-0.22731262
127	0xbdf697e6	-0.12040691
128	0xbfba984f	-1.4577731
129	0x3f0e62e1	0.5561963
130	0xbf09e47f	-0.5386428
131	0xbda37514	-0.07981315
132	0x3f398cae	0.72480285
133	0xbe386d8c	-0.18010539
134	0x3d6fee8f	0.058577117
135	0xbcfc1d36	-0.030775648
136	0xbac871b1	-0.0015292672
137	0xbcde8ea1	-0.02716762
138	0xbf344113	-0.70411795
139	0x3f306b83	0.6891405
140	0xbf9ba3b9	-1.2159339
141	0xbf5ba251	-0.8579455
142	0x3f2220c9	0.63331276
143	0xc0172638	-2.3617077
144	0x3f32249f	0.6958713
145	0x3b328aba	0.0027243332
146	0x3f9565b0	1.1671658
147	0x3f25e5e1	0.6480389
148	0xc0477d7d	-3.1170342
149	0x3ec3ad99	0.38218382
150	0xbd4d5f6e	-0.050139837
151	0x3f4fcd73	0.81172866
152	0xbe6e432f	-0.23267816
153	0x3f182ebe	0.5944632
154	0x3f2e73a1	0.68145186
155	0xbe8a7468	-0.27041936
156	0xc05e87f3	-3.4770477
157	0x3f0e4bb7	0.5558428
158	0x3e2ebd12	0.17064312
159	0xbf180ff9	-0.5939937
160	0x3e7f3b65	0.24925001
161	0x3ea51aea	0.32247096
162	0x3db1c092	0.08679308
163	0xbede7ff8	-0.43457007
164	0x3eef6582	0.46757132
165	0xbf1bb164	-0.6081755
166	0x3efb30cd	0.4906067
167	0x3f4d9cd4	0.80317426
168	0xbf1a6a96	-0.6031889
169	0xbfcf7702	-1.6208193
170	0xbd559b20	-0.05214989
171	0xbea8b400	-0.3294983
172	0x3f4a97eb	0.7913806
173	0xbea4c873	-0.3218418
174	0xc011b17a	-2.2764573
175	0xbe5d7585	-0.21626861
176	0x3f7ac05e	0.9794978
177	0xbf0e21d0	-0.55520344
178	0xbfc1eed3	-1.5151008
179	0xbfb11afc	-1.383636
180	0xbdeccbca	-0.11562307
181	0x3ef04d12	0.469338
182	0xbe86ec53	-0.26352176
183	0xbde9a65d	-0.114086844
184	0x3fb8ef94	1.4448113
185	0x3eed81b5	0.4638802
186	0xbd1148bf	-0.035469767
187	0x3eb63121	0.35584357
188	0xbd98a0e0	-0.074525595
189	0xbe7c2857	-0.24624763
190	0x3fc70d7d	1.5550991
191	0x3ef0a3bd	0.46999922
192	0xbda53e3a	-0.080685094
193	0x3e42ed06	0.1903573
194	0x3f197251	0.5994006
195	0xbea9638f	-0.3308377
196	0x3ea7b96b	0.3275865
197	0x3f274712	0.6534282
198	0xbf4ca40d	-0.7993782
199	0x3ea1443a	0.31497365
200	0xbf51ed82	-0.82003033
201	0xbfca46c2	-1.5802844
202	0x3f7cd445	0.987614
203	0xbf825170	-1.0181103
204	0x3c19d380	0.009388804
205	0xbe9d73ae	-0.3075232
206	0xbe53bca8	-0.20677435
207	0x3dcaaedf	0.09896635
208	0x3f39e8fd	0.72621137
209	0xbf9d039c	-1.2266726
210	0xbdd2a009	-0.102844305
211	0xbd806de8	-0.06270963
212	0x3f0115b9	0.5042377
213	0x3ea33661	0.31877425
214	0xbed91d2d	-0.42405072
215	0x3f20b21e	0.62771785
216	0x3eff6294	0.49879897
217	0x3f08f0de	0.53492534
218	0xbfacd922	-1.3503764
219	0x3f109153	0.5647175
220	0xbfaf0e5c	-1.3676257
221	0x3ea50ed5	0.32237878
222	0xbf608aad	-0.877116
223	0xbed41c53	-0.4142786
224	0x3f39d0e2	0.72584355
225	0xbef74de7	-0.48301622
226	0x3f414fba	0.7551228
227	0x3d947c6b	0.07250293
228	0xbf96ab18	-1.1770964
229	0xbd77fb27	-0.060542252
230	0x3fb1e9ad	1.3899437
231	0xbec69e62	-0.38792711
232	0x3de74f04	0.11294368
233	0x3eedfa87	0.464802
234	0x3e0a85b7	0.1352757
235	0xc000ec08	-2.0144062
236	0xbe550dc5	-0.20806034
237	0xbe9e1618	-0.3087623
238	0x3d5189c4	0.051156774
239	0xbf5bd9b8	-0.8587909
240	0x3e4db896	0.20089945
241	0x3dbfcbad	0.0936502
242	0xbe35cb69	-0.17753376
243	0x3faf4f69	1.3696109
244	0x3e83a03b	0.25708184
245	0xbe47e998	-0.19522703
246	0x3c00883b	0.00784498
247	0xbf7f5f57	-0.9975485
248	0xbf9aaa87	-1.2083291
249	0x3f186e32	0.59543145
250	0xbf049956	-0.5179647
251	0x3ea1664f	0.31523368
252	0x3e9e358f	0.30900237
253	0x3e02c667	0.12770997
254	0x3f009f5b	0.5024316
255	0xbe4003d2	-0.18751457

fc2.bias f4 [64]
0	0xbd9abdba	-0.07555719
1	0xbe605459	-0.21907176
2	0xbf960866	-1.1721313
3	0xbe7dea56	-0.24796423
4	0x3d88028e	0.06641112
5	0xbffc5a79	-1.971511
6	0x3f005cc8	0.5014157
7	0xbfa125d8	-1.2589674
8	0xbead63ed	-0.338653
9	0xbff7bf9e	-1.9355352
10	0xbf0c6016	-0.54834116
11	0xbe32a3e5	-0.17445333
12	0xc0049389	-2.0715048
13	0xbf3e9d3c	-0.7445867
14	0xc008d884	-2.138215
15	0x3f95f8a4	1.1716504
16	0x3d528f94	0.051406458
17	0xbe951f7c	-0.29125583
18	0xbea45ca7	-0.32101938
19	0xbf93e9ed	-1.1555763
20	0xbf03ae39	-0.5143772
21	0xbe01677d	-0.12637134
22	0xbdea7423	-0.114479326
23	0xbeb59314	-0.35463774
24	0xbddf92db	-0.10916682
25	0xbe8b2b6d	-0.2718157
26	0x3f19e3de	0.6011332
27	0xbf9ce5d1	-1.2257634
28	0x3ed489d3	0.41511402
29	0xbfb05325	-1.3775374
30	0xbf141df4	-0.57858205
31	0xbf86c618	-1.0529203
32	0xbe85bdea	-0.26121455
33	0x3f55d4fc	0.83528113
34	0xc001a62d	-2.0257676
35	0xbe492fd0	-0.19647145
36	0xbea760e4	-0.3269111
37	0x3c54b297	0.012982032
38	0xbeb87ef1	-0.3603435
39	0xbfff3dbf	-1.9940718
40	0x3ec973c7	0.39346144
41	0xbe11573d	-0.14193435
42	0x3e16c6e2	0.14724305
43	0x3d3526f4	0.0442266
44	0x3ee76612	0.4519506
45	0xbd3f4482	-0.046696194
46	0x3f913ea4	1.1347241
47	0xbf3c4b1d	-0.73552114
48	0xc031f684	-2.7806711
49	0xbe4c8db5	-0.19975932
50	0x3f31aee6	0.694075
51	0x3e001bb8	0.12510574
52	0xbdd1d7fb	-0.10246273
53	0xbfc4c331	-1.5372068
54	0xbf1d0b18	-0.6134505
55	0xbe53021a	-0.2060627
56	0xbe9124e1	-0.2834845
57	0xbebb93eb	-0.3663629
58	0xbf160dd7	-0.5861487
59	0xbf015759	-0.50523907
60	0xbee54ae8	-0.4478371
61	0xbf36a6f8	-0.71348524
62	0x3f19bb93	0.6005184
63	0x3dee537c	0.11637017

fc3.weight f4 [5, 64]
0	0x3cf65d49	0.030073779
1	0x3cedacf0	0.029013127
2	0xbea2c753	-0.31792697
3	0xbd008231	-0.03137416
4	0xbc9af039	-0.018913375
5	0xbeddd386	-0.43325442
6	0x3e94e1b2	0.29078442
7	0xbe2050a0	-0.15655756
8	0xbe521ec7	-0.20519553
9	0xbe1479fb	-0.14499657
10	0x3e0f942b	0.14021365
11	0xbc9a1f85	-0.018813858
12	0xbd8b1bc8	-0.06792408
13	0xbe541769	-0.20712055
14	0xbf11504a	-0.56763136
15	0x3ea5addc	0.32359207
16	0xbcd428c5	-0.025898347
17	0x3ed99cdc	0.42502487
18	0xbbab2eaa	-0.0052240686
19	0x3e9d01be	0.30665392
20	0x3de7b34c	0.11313495
21	0x3d5ed6c6	0.054404043
22	0xbce8d23d	-0.028420562
23	0x3dc80a24	0.09767559
24	0xbd7df790	-0.062003672
25	0x3d4bd3da	0.049762584
26	0x3e7abc35	0.24485858
27	0x3e079f0f	0.1324427
28	0x3e95f7dc	0.29290664
29	0xbe4f127b	-0.20221893
30	0xbeec2cf6	-0.46128052
31	0xbe310eb3	-0.17290764
32	0xbb0cfe76	-0.0021513975
33	0x3e335a37	0.17514883
34	0xbe84c997	-0.2593505
35	0xbe61bb53	-0.22044115
36	0xbe594cc2	-0.21220687
37	0xbd69c41d	-0.057071794
38	0xbc458658	-0.012055956
39	0xbe9c297a	-0.30500394
40	0x3f2a25c0	0.6646385
41	0xbc193e9c	-0.009353306
42	0x3ea4c7d9	0.32183722
43	0x3ef4c298	0.47804713
44	0x3e5d7585	0.21626861
45	0x3e7afbce	0.24510118
46	0x3d2c59f8	0.04207799
47	0xbe6d7742	-0.23190024
48	0x3ea4e944	0.32209218
49	0x3d2f0be8	0.042735964
50	0x3e0ef3e9	0.13960232
51	0xbd9319b4	-0.07182637
52	0xbde351f9	-0.110996194
53	0xbe9e3eb5	-0.30907217
54	0xbe2fd97d	-0.17172809
55	0x3e72a05b	0.23693983
56	0x3c5bb9a7	0.013410962
57	0x3e907b84	0.28219235
58	0x3eae881f	0.34088227
59	0x3e1f6319	0.15565147
60	0x3da32099	0.07965202
61	0xbd389744	-0.045066133
62	0x3e053dbc	0.13011831
63	0xbd0da94b	-0.03458528
64	0x3d8f03e8	0.06983167
65	0x3cf4a39f	0.029863177
66	0x3edfb5ed	0.43693486
67	0xbe1c359d	-0.15254827
68	0xbebd32c7	-0.36952803
69	0x3e857700	0.26067352
70	0xbf7b089f	-0.9806003
71	0xbed50c86	-0.41611117
72	0xbc8be345	-0.017076144
73	0x3fc8ea86	1.5696571
74	0x3e8a2875	0.2698399
75	0xbdaa1adf	-0.083059065
76	0x3eac4ce4	0.33652413
77	0x3ed4437e	0.41457742
78	0x3f38d102	0.7219392
79	0x3dfbb565	0.12290458
80	0xbe05b14b	-0.13055913
81	0xbf8d1902	-1.1023257
82	0x3f6e842d	0.93170434
83	0x3e1e3c1a	0.15452614
84	0x3f23ad4d	0.6393631
85	0x3d9c0d33	0.07619705
86	0x3d3d83f7	0.04626843
87	0xbe43334d	-0.19062538
88	0xbc5e1e8f	-0.01355709
89	0x3dd43a32	0.103626624
90	0x3e2e7c37	0.17039572
91	0x3ef9796c	0.4872545
92	0xbf5d7562	-0.86507237
93	0xbf60fa7e	-0.8788222
94	0xbe915048	-0.28381562
95	0xbf061d79	-0.5238872
96	0x3ee587b5	0.448301
97	0xbe672e4d	-0.22576256
98	0xbed6e0d0	-0.41968393
99	0x3ed9e2f5	0.42555967
100	0xbf7bdbb6	-0.9838213
101	0xbf331352	-0.69951355
102	0x3e436c9a	0.19084397
103	0xbd0770da	-0.033066608
104	0xbd824308	-0.063604414
105	0xbe56b00a	-0.20965591
106	0x3e2de8fa	0.16983405
107	0x3f534a5e	0.8253535
108	0x3f818716	1.011935
109	0xbf1d6c18	-0.6149306
110	0xbd0a90e5	-0.03382959
111	0x3f554d48	0.83321047
112	0xbe008679	-0.12551297
113	0xbd83e7b5	-0.06440679
114	0x3ecfaa37	0.4055955
115	0xbe83b79a	-0.25726014
116	0xbc9c17b4	-0.019054271
117	0x3e6ac26b	0.22925727
118	0xbddcacf5	-0.107751764
119	0xbe0424c4	-0.1290465
120	0xbf891911	-1.0710775
121	0x3f765610	0.9622507
122	0x3e5ebdeb	0.21752135
123	0x3e91c1ab	0.2846807
124	0xbe2755f9	-0.1634139
125	0x3d583eac	0.052794144
126	0x3e96462a	0.29350406
127	0xbeff73db	-0.49893078
128	0xbd9f0a88	-0.077656806
129	0x3d028266	0.03186264
130	0xbe7cd89d	-0.24692006
131	0x3dd09279	0.101841874
132	0x3eed5d0f	0.4636006
133	0x3eca9e4c	0.39573896
134	0x3f3b2ed0	0.73118305
135	0x3ef94b1e	0.48690122
136	0x3e38d193	0.18048696
137	0xbe43fc7e	-0.19139287
138	0x3e03b702	0.1286278
139	0xbc9a5f89	-0.018844383
140	0xbea016e9	-0.3126748
141	0xbf0fa2d0	-0.5610781
142	0x3d978169	0.0739773
143	0xbe9d029b	-0.3066605
144	0x3db46ceb	0.08809837
145	0x3f60a7d5	0.8775609
146	0xbf6d25ba	-0.9263569
147	0x3eb4d852	0.3532129
148	0xbf135671	-0.57553774
149	0x3da85eeb	0.08221229
150	0x3dbed53d	0.09318016
151	0x3e2a60fb	0.16638558
152	0xbda936df	-0.08262419
153	0x3e28ea8e	0.16495726
154	0xbe87acb1	-0.2649894
155	0xbf237b25	-0.6385978
156	0x3f12f852	0.57410157
157	0x3f04ccef	0.51875204
158	0x3ed1007c	0.40820682
159	0x3f0aab07	0.54167217
160	0xbea4d898	-0.32196498
161	0x3dccc171	0.099978335
162	0xbbb6b8ca	-0.005576228
163	0xbedb14b2	-0.42789227
164	0x3f3ddb98	0.741632
165	0x3f19cb53	0.60075873
166	0x3e23e783	0.16006283
167	0x3f9c7b7e	1.2225187
168	0xbe1fd1cf	-0.1560738
169	0x3caa6fb3	0.020805215
170	0xbe7a9e9d	-0.24474569
171	0xbf749260	-0.9553585
172	0xbf940c13	-1.1566185
173	0x3f12b085	0.573006
174	0xbdb4a615	-0.0882074
175	0xbf1f0bcd	-0.6212738
176	0xbf34f8ca	-0.7069212
177	0xbdd6d076	-0.104889795
178	0xbf4065bb	-0.7515523
179	0x3d27649e	0.04086744
180	0x3e048cd8	0.12944353
181	0xbe62949c	-0.22127002
182	0x3d0fca15	0.03510483
183	0x3d903216	0.07040803
184	0x3f47338e	0.7781304
185	0xbf9abeed	-1.2089516
186	0xbe8b6864	-0.2722808
187	0xbe27d727	-0.16390668
188	0x3d9a7c5f	0.07543253
189	0xbe229d1c	-0.15880245
190	0xbed27366	-0.41103667
191	0x3efe37ce	0.4965195
192	0x3d768740	0.06018758
193	0x3d89f099	0.067353435
194	0x3de585ed	0.11207185
195	0xbeef80d4	-0.46777976
196	0xbe3cc8fc	-0.18436044
197	0xbe3ad88f	-0.18246673
198	0x3d8ea87d	0.0696573
199	0xbe83b258	-0.25722003
200	0x3dce59c3	0.100757144
201	0xbe50d15a	-0.20392361
202	0xbe8a0b9f	-0.2696199
203	0xbd22cdf8	-0.03974721
204	0x3c8ae158	0.016953155
205	0xbf426b04	-0.7594454
206	0x3d995bc4	0.07488206
207	0x3dbd97e4	0.092574865
208	0x3e288b37	0.16459356
209	0xbf2cc969	-0.6749483
210	0x3f1c3c96	0.61029947
211	0x3f9117b6	1.1335361
212	0xbf22081e	-0.63293636
213	0x3ddff990	0.10936272
214	0x3e095298	0.13410413
215	0xbe1dad83	-0.1539822
216	0xbdd7c429	-0.105354615
217	0x3e0967c6	0.13418493
218	0xbec826fd	-0.39092246
219	0xbe443a61	-0.19162895
220	0x3f1713dc	0.5901468
221	0xbf2896b3	-0.6585495
222	0x3eee30db	0.4652165
223	0x3efbc60f	0.49174544
224	0xbf0758a9	-0.5286966
225	0xbc0af263	-0.008480641
226	0x3f65c58f	0.89754575
227	0x3e89086b	0.26764235
228	0x3f5d3937	0.8641543
229	0xbf0d364e	-0.5516099
230	0xbbe00fba	-0.0068378123
231	0xbd6bd5c2	-0.057576902
232	0xbf117cb5	-0.5683091
233	0x3de9a52e	0.11408459
234	0x3f74ea9e	0.956705
235	0xbed7065b	-0.41997036
236	0xbeb464c6	-0.35233134
237	0xbf4b4f7d	-0.79418164
238	0x3f047ab2	0.5174972
239	0xbf1d8805	-0.61535674
240	0x3dc5852b	0.096445404
241	0x3dc1a1ea	0.09454711
242	0x3cb5eb91	0.022207053
243	0xbf1d7d4f	-0.6151933
244	0x3d61c46b	0.05511896
245	0x3ee53266	0.44765013
246	0xbf010a1c	-0.5040605
247	0xbcf806d6	-0.030276697
248	0x3eb3d199	0.35120848
249	0x3f1ffe30	0.62497234
250	0x3f88069d	1.0627018
251	0xbd166617	-0.036718454
252	0x3f4123ae	0.7544507
253	0x3edbc6de	0.4292516
254	0x3f249e90	0.6430445
255	0x3d6897e7	0.05678549

fc3.bias f4 [5]
0	0x3fe37c5a	1.7772324
1	0xbf585e65	-0.84519035
2	0x3e01dd35	0.1268204
3	0x3b5bc4da	0.003353408
4	0xbedeba56	-0.43501538

in_fn.weight f4 [43]
0	0x3f5e47f3	0.86828536
1	0x3f55b6ba	0.83481944
2	0x3f95be42	1.1698687
3	0x3f70051b	0.9375779
4	0x3f491bb9	0.78557926
5	0x3f7624a2	0.9614965
6	0x3f88f01f	1.0698279
7	0x3f8e10eb	1.1098913
8	0x3faa8087	1.3320473
9	0x3fc45417	1.5338162
10	0x3edee46c	0.43533647
11	0x3e9b4ace	0.3033051
12	0x3d0e424c	0.034731194
13	0x3e642ec9	0.22283472
14	0x3f32e98b	0.6988761
15	0x3f901a5c	1.1258044
16	0x3e91a88a	0.28448898
17	0xbcedf5d4	-0.029047884
18	0x3ff6ed4a	1.9291165
19	0x3fe5e41e	1.7960241
20	0x3f4b4979	0.79408985
21	0x3ee345f3	0.44389305
22	0x3f48064d	0.78134614
23	0x3f064938	0.5245547
24	0x3f8bb1ea	1.091367
25	0x3f8a5826	1.0808151
26	0xbd883e2f	-0.066524856
27	0x3e74e179	0.23914136
28	0x3ec5a66a	0.38603526
29	0x3e95a367	0.2922623
30	0x3e93d11e	0.2887048
31	0x3ea852bd	0.32875624
32	0x3e959caa	0.29221088
33	0x3df29c4e	0.11846219
34	0x3dfc3bbf	0.12316083
35	0x3dcfeb5e	0.101523146
36	0x3dc6ad07	0.09700971
37	0x3e4a5c29	0.19761719
38	0x3e0a395e	0.13498446
39	0x3e161dc0	0.14659786
40	0x3e50abde	0.20378062
41	0x3dd8e952	0.10591377
42	0x3e546f1d	0.20745511

in_fn.bias f4 [43]
0	0xbf977196	-1.1831539
1	0x3e4e9e73	0.20177631
2	0x3e84c5ba	0.25932103
3	0xbe1e48ac	-0.1545741
4	0xbf57855d	-0.8418787
5	0x3ebbeff3	0.36706504
6	0x3e9c2846	0.30499476
7	0xbe15361f	-0.14571427
8	0xbef39bd2	-0.4757982
9	0xbe333f22	-0.17504552
10	0x3f841dfc	1.032165
11	0xbe8dd345	-0.27700248
12	0x3d79d221	0.06099141
13	0x3e56bea9	0.20971169
14	0xbe1562b1	-0.14588429
15	0x3e235d65	0.15953596
16	0x3f64a79a	0.8931824
17	0x3bc53e9c	0.0060194265
18	0x3e7c1f1a	0.2462124
19	0x3e8a2176	0.26978654
20	0x3f3aedc1	0.73019034
21	0x3dbbd2b0	0.09171045
22	0x3dbaef99	0.09127731
23	0x3d9d9436	0.076942846
24	0xbf19a76c	-0.6002109
25	0xbe393e20	-0.18090105
26	0xbc7be17e	-0.015373586
27	0xbf5d75ce	-0.8650788
28	0x3d7f3be0	0.06231296
29	0xbe04d443	-0.12971596
30	0xbdc3f9a6	-0.09569101
31	0xbdcb43dd	-0.09925053
32	0xbe0d8dc1	-0.13823606
33	0xbf08d788	-0.53453875
34	0xbf684464	-0.90729356
35	0xbf4656a6	-0.77475965
36	0xbf81cde3	-1.0140957
37	0xbee8c59f	-0.45463273
38	0xbf088378	-0.53325605
39	0xbf2acacf	-0.6671571
40	0xbed46a1b	-0.41487202
41	0xbebada45	-0.3649465
42	0xbf30ec85	-0.691109

in_fn.running_mean f4 [43]
0	0xbd1f2605	-0.038854618
1	0xbc013b6c	-0.007887702
2	0xbd2f69fe	-0.04282569
3	0xbd453aeb	-0.04815189
4	0xbd1cd842	-0.038292177
5	0xbd4fcc44	-0.050731912
6	0xbd9c53df	-0.07633185
7	0xbdc8b462	-0.0980003
8	0xbbd79a04	-0.0065796394
9	0x3cbdd691	0.023173602
10	0xba1370c2	-0.0005624407
11	0x3d2f7d6a	0.042844214
12	0xbb948de0	-0.0045335144
13	0x3b291594	0.0025800215
14	0x3d1cd842	0.038292177
15	0x3d4fcc44	0.050731912
16	0xbd1bcf7b	-0.038039666
17	0xbd419c7c	-0.047268376
18	0x3d00dc3b	0.03146003
19	0x3d9043e2	0.070441976
20	0x3d1981b9	0.03747723
21	0x3db88cf4	0.0901126
22	0x3d093dc0	0.033506155
23	0x3d4c2dd6	0.0498484
24	0x3d9c53df	0.07633185
25	0x3dc8b462	0.0980003
26	0x3d1bcf7b	0.038039666
27	0x3d419c7c	0.047268376
28	0x3eee0647	0.46489164
29	0x3e27fb3c	0.16404432
30	0x3db8b097	0.09018057
31	0x3e151fd9	0.1456293
32	0x3e0a8010	0.13525414
33	0x3ce8d603	0.028422361
34	0x3d6a54c7	0.057209756
35	0x3d3ae94d	0.04563265
36	0x3ee2379e	0.44183058
37	0x3eda933f	0.42690465
38	0x3e3aa755	0.18227895
39	0x3e336302	0.17518237
40	0x3e4443da	0.19166508
41	0x3e40330a	0.1876947
42	0x3e86bf63	0.2631789

in_fn.running_var f4 [43]
0	0x3eabe524	0.33573258
1	0x3ead6193	0.33863506
2	0x3ea706b6	0.32622308
3	0x3ea91e3a	0.33030874
4	0x3efbc826	0.4917614
5	0x3f1b1156	0.6057333
6	0x3ef73280	0.48280716
7	0x3eb27a65	0.34859005
8	0x3f0dcd81	0.553917
9	0x3f26e0aa	0.6518656
10	0x3f1ade28	0.60495234
11	0x3f2986be	0.66221225
12	0x3f20e2fa	0.6284634
13	0x3f2ce6cb	0.6753966
14	0x3efbc826	0.4917614
15	0x3f1b1156	0.6057333
16	0x3f55e8fe	0.8355864
17	0x3f57a6de	0.84238994
18	0x3f028706	0.5098728
19	0x3eb39c10	0.35080004
20	0x3f173347	0.5906262
21	0x3ef1017b	0.47071442
22	0x3f1e340c	0.6179817
23	0x3eded495	0.43521562
24	0x3ef73280	0.48280716
25	0x3eb27a65	0.34859005
26	0x3f55e8fe	0.8355864
27	0x3f57a6de	0.84238994
28	0x3e7e2779	0.24819745
29	0x3e0b4a1c	0.13602489
30	0x3da5bfe9	0.080932446
31	0x3dfe2b71	0.124106295
32	0x3deed872	0.116623774
33	0x3cdb280d	0.026752496
34	0x3d584e5c	0.052809104
35	0x3d29e71c	0.04148017
36	0x3e76bf24	0.24096352
37	0x3e791d40	0.24327564
38	0x3e10ed6b	0.14153068
39	0x3e13dfad	0.14440794
40	0x3e1ea70f	0.15493415
41	0x3e1bf6c3	0.15230851
42	0x3e41e4f0	0.18934989

fc1.weight f4 [64, 43]
0	0x3e1631c7	0.14667426
1	0xbe8880ba	-0.2666071
2	0xbdc7a3f0	-0.097480655
3	0x3dd4cf7c	0.10391137
4	0x3d31b9e8	0.043390185
5	0xbcadf452	-0.021234665
6	0xbda23102	-0.07919504
7	0x3cb6ce5e	0.0223152
8	0x3e211828	0.15731871
9	0xbe291cec	-0.16514939
10	0xbeac46bf	-0.33647725
11	0x3e2adeb5	0.16686518
12	0xbd1a7cdb	-0.037716728
13	0xbe8299df	-0.2550802
14	0x3ca7566f	0.020426957
15	0xbddbe43d	-0.10736892
16	0xbe143117	-0.14471851
17	0xbdf67942	-0.12034847
18	0x3ca1ae4d	0.019736433
19	0xbdce790e	-0.10081683
20	0xbe5cd69c	-0.21566242
21	0xbe82b421	-0.25528052
22	0x3bc82193	0.006107518
23	0xbde53cc7	-0.11193233
24	0xbd932a0b	-0.071857534
25	0xbce2370b	-0.027614137
26	0x3e650552	0.22365311
27	0x3dca1b33	0.09868469
28	0xbec364b4	-0.38162768
29	0x3e7b8cd5	0.24565442
30	0x3ec40f9d	0.38293162
31	0xbe33d828	-0.17562926
32	0xbf16eea1	-0.5895787
33	0x3f07f23c	0.53103995
34	0xbda1bbea	-0.0789717
35	0xbc2ba647	-0.010476655
36	0x3f479aec	0.7797077
37	0xbe4f1f91	-0.20226885
38	0x3efdd043	0.49572954
39	0x3e9b364b	0.3031486
40	0x3ec045ae	0.3755316
41	0x3f42a406	0.7603153
42	0xbd575d47	-0.05257919
43	0x3f275cd7	0.6537604
44	0xbe8f2017	-0.2795417
45	0x3e9b3b5b	0.30318722
46	0x3e71d177	0.23615061
47	0x3f2f5433	0.6848785
48	0x3ec48d0a	0.38388854
49	0x3e45fd92	0.1933501
50	0x3f427bb7	0.75970024
51	0x3f80ed63	1.0072445
52	0x3f7a4283	0.9775774
53	0xbecc91e2	-0.3995505
54	0xbeff3d10	-0.49851274
55	0xbd36438a	-0.044498004
56	0xbef745a1	-0.4829531
57	0xbe10735d	-0.14106508
58	0xbf447a15	-0.7674878
59	0xbe419e7e	-0.18908116
60	0xbe038222	-0.1284261
61	0x3ef288e7	0.47370073
62	0x3f7704a6	0.9649147
63	0xbedd147f	-0.431797
64	0xbf825860	-1.018322
65	0x3e0abcc9	0.13548578
66	0xbef76cca	-0.48325187
67	0xbe392230	-0.18079448
68	0xbefd4c0f	-0.4947209
69	0xbd572ac3	-0.052531015
70	0x3f03fe24	0.5155966
71	0x3e7598ed	0.23984118
72	0xbe405eb0	-0.1878612
73	0x3ed8755c	0.42277038
74	0xbe915c3f	-0.2839069
75	0x3f367979	0.712791
76	0x3ed79c76	0.42111558
77	0x3ea2b3ee	0.317779
78	0x3e9e884e	0.30963367
79	0x3f0bcef8	0.54612684
80	0x3e4ee3ad	0.20204039
81	0x3ea3641d	0.31912318
82	0x3e89e277	0.2693059
83	0x3e5c2fb2	0.2150257
84	0x3ecc1a20	0.39863682
85	0x3eac04cf	0.3359742
86	0x3e0cd09a	0.1375145
87	0xbd4f2979	-0.05057666
88	0xbf22d683	-0.6360857
89	0x3dcada17	0.099048786
90	0xbdf2344c	-0.11826381
91	0xbf0d603e	-0.5522498
92	0xbf50027a	-0.8125378
93	0xbe693f9a	-0.22778168
94	0xbf2fcc2e	-0.6867093
95	0xbed32b37	-0.41243908
96	0xbe101b76	-0.14072976
97	0x3e2282a4	0.15870148
98	0xbe0fd1b0	-0.14044833
99	0xbcb05d10	-0.02152875
100	0x3eac2997	0.3362548
101	0x3eae0574	0.33988535
102	0xbf04553f	-0.51692575
103	0xbe3c881d	-0.18411298
104	0xbf9b7e01	-1.2147828
105	0xbe74ab07	-0.23893367
106	0x3eb64327	0.35598108
107	0x3e945634	0.28972018
108	0xbe72fe3f	-0.237298
109	0x3d47c5c9	0.048772607
110	0x3f725017	0.9465346
111	0x3f0b2b03	0.54362506
112	0xbce33a70	-0.027737826
113	0x3f0d0a9f	0.5509433
114	0x3e1b9b7c	0.15196031
115	0x3ec8f05a	0.39245874
116	0xbe4cd8ed	-0.20004626
117	0x3f0ea1f0	0.55715847
118	0xbe6e0d53	-0.2324727
119	0x3e0970cb	0.13421933
120	0x3ee28a1f	0.44246003
121	0x3ec2b5f9	0.3802946
122	0x3ec2f608	0.38078332
123	0x3da78270	0.08179176
124	0x3e98e470	0.29861784
125	0x3eda84c2	0.4267941
126	0xbc3ad2f1	-0.011402831
127	0x3ec3ef65	0.3826858
128	0x3ecf923c	0.40541255
129	0x3e54fade	0.20798823
130	0x3e351a02	0.17685702
131	0x3e9e1305	0.30873886
132	0xbdb45e05	-0.08806995
133	0xbdf05130	-0.11734235
134	0xbef18c51	-0.47177365
135	0x3e3cc678	0.18435085
136	0xbe26c444	-0.16285807
137	0x3fd49941	1.6609269
138	0xbf2e931b	-0.68193215
139	0xbef11d42	-0.47092634
140	0x3eeade54	0.45872748
141	0x3cd606b1	0.026126238
142	0xbe45ecb5	-0.19328578
143	0x3f023900	0.50868225
144	0x3e364f40	0.17803669
145	0xbeb50711	-0.35356954
146	0xbc551c66	-0.013007259
147	0x3f7c6ee7	0.98606724
148	0xbf75bbed	-0.95989877
149	0xbf84e899	-1.0383483
150	0x3ecef2a5	0.40419498
151	0x3df8ea5c	0.121540755
152	0x3e32fa49	0.17478289
153	0xbe1022e9	-0.14075817
154	0x3f0fb55c	0.5613611
155	0x3e16cea4	0.14727265
156	0x3f20aa87	0.62760204
157	0x3ef2848a	0.47366744
158	0xbea09ca5	-0.3136951
159	0x3e3e2235	0.18567736
160	0x3dc39fda	0.09551974
161	0xbddc68b4	-0.10762158
162	0x3ef17f33	0.47167358
163	0x3f4d0a4b	0.8009383
164	0x3f6268f6	0.8844141
165	0x3f1a1dc8	0.6020169
166	0x3e24057d	0.16017719
167	0x3e582ef3	0.2111166
168	0x3f53c9b8	0.82729673
169	0x3f25d9b5	0.6478532
170	0x3f0cb9f0	0.5497122
171	0x3f74fe61	0.9570065
172	0x3f85fb34	1.0467286
173	0xbe8cb688	-0.2748301
174	0x3efe2898	0.49640346
175	0xbdabd4ad	-0.08390174
176	0x3f47f934	0.7811463
177	0xbe52729d	-0.20551534
178	0x3f2dc226	0.6787437
179	0xbdeeea6c	-0.11665806
180	0x3fda3c1e	1.7049596
181	0x3e1a4183	0.15064053
182	0xbee1b3e2	-0.44082552
183	0x3d407641	0.046987776
184	0x3e058739	0.13039865
185	0x3d90553a	0.07047506
186	0xbe50c7ff	-0.20388792
187	0x3dc2a7c7	0.09504657
188	0xbed123d3	-0.40847644
189	0x3daa0bb6	0.08303015
190	0x3fa16ad1	1.2610723
191	0xbda58a1a	-0.080829814
192	0xbed9ad6a	-0.42515117
193	0xbd81d03b	-0.06338545
194	0xbea1d0ac	-0.31604517
195	0x3e55df2d	0.20885916
196	0xbf080107	-0.5312657
197	0x3eba3fdc	0.36376846
198	0x3d0f1a4d	0.03493719
199	0x3ef38c7c	0.4756812
200	0x3e6fd01e	0.23419234
201	0xbe9ceeb9	-0.3065088
202	0x3edf2328	0.4358151
203	0x3e0a5317	0.13508259
204	0xbe05bfd8	-0.13061464
205	0x3eb017d5	0.34393182
206	0x3e478e3f	0.19487856
207	0x3ea5adab	0.3235906
208	0x3f017343	0.505665
209	0x3ea5148f	0.32242247
210	0x3e7ede81	0.24889566
211	0x3ee127ee	0.43975776
212	0x3e0a1201	0.1348343
213	0x3e2a3770	0.1662271
214	0x3e9a12fd	0.30092612
215	0x3e8aae7d	0.2708625
216	0x3f05fd91	0.52340037
217	0xbdfc584a	-0.12321527
218	0x3f89d394	1.0767694
219	0x3e89d73e	0.2692203
220	0x3f1eb831	0.61999804
221	0xba9febed	-0.0012201049
222	0x3f578b74	0.84197164
223	0x3d39bcc4	0.045346037
224	0x3ef2d3d7	0.47427246
225	0xbf62b400	-0.8855591
226	0x3c1e6d04	0.009669546
227	0x3db9fee5	0.090818204
228	0xbbfc4a59	-0.0076992926
229	0x3c97a28e	0.01851013
230	0xbf7564c7	-0.958569
231	0xbf2713c2	-0.65264523
232	0x3e19c8a0	0.15017939
233	0xbd87df3f	-0.06634378
234	0x3f12e3f0	0.57379055
235	0xbf383a8a	-0.71964324
236	0xbe09e465	-0.13466032
237	0xbe9647ad	-0.2935156
238	0x3f0c48a2	0.5479833
239	0x3e6fb196	0.23407587
240	0xbf3acfaf	-0.7297315
241	0x3d812f14	0.063078076
242	0x3f444343	0.76665133
243	0x3f2be5c6	0.6714748
244	0xbd0331f4	-0.03203006
245	0xbf2b7a01	-0.6698304
246	0xbedc2aa0	-0.4300127
247	0x3f81e888	1.0149088
248	0x3e97f94e	0.29682392
249	0x3f16b4a2	0.58869374
250	0x3ee1cfbd	0.44103804
251	0x3f5db77d	0.86608106
252	0x3e93f510	0.28897905
253	0x3f13e927	0.5777764
254	0x3f01156e	0.50423324
255	0x3f108e6f	0.56467336

fc1.bias f4 [64]
0	0xbaeaaa58	-0.001790355
1	0xbf757b2f	-0.9589109
2	0xbf5fa0f3	-0.87354964
3	0xbf6eef4b	-0.9333388
4	0xbf80cea6	-1.0063064
5	0xbf80da62	-1.0066645
6	0x3facf27e	1.3511503
7	0x3eaaeb1e	0.33382505
8	0xbe13b9db	-0.14426367
9	0xbebaa98d	-0.36457482
10	0xbf8d3c8f	-1.1034106
11	0xbf929957	-1.1453046
12	0xbfa47630	-1.2848568
13	0x3ee63e1b	0.44969258
14	0x3f473f97	0.77831405
15	0x3e341f20	0.17589998
16	0x3f433321	0.7624989
17	0xbeb954dd	-0.36197558
18	0xbf8e8e7b	-1.1137232
19	0xbf407ed0	-0.751935
20	0xbe828518	-0.25492167
21	0xbf434753	-0.7628071
22	0xbf8102f7	-1.007903
23	0x3ea9fd5b	0.33201107
24	0xbf9688a4	-1.176045
25	0xbf8dd020	-1.107914
26	0x3eb52dff	0.35386655
27	0x3ecdd0ab	0.40198264
28	0xbea85699	-0.3287857
29	0x3cb789d2	0.022404585
30	0xbf7b3ea0	-0.98142433
31	0xbf8dc4cf	-1.1075686
32	0xbf249a6d	-0.64298135
33	0x3ec82aa9	0.39095047
34	0xbe7515ee	-0.23934147
35	0xbf9b1937	-1.211707
36	0xbf0cbbfa	-0.5497433
37	0xbf234e01	-0.637909
38	0xbf16f557	-0.5896811
39	0xbf19098f	-0.5978021
40	0xbfa64903	-1.2991031
41	0xbf969f51	-1.176737
42	0xbfa50290	-1.2891407
43	0xbf84c893	-1.037371
44	0xbf24cb16	-0.64372385
45	0xbf8c2464	-1.0948606
46	0xbef20700	-0.47270966
47	0x3f96a7f9	1.1770011
48	0xbf4549f5	-0.77065974
49	0x3f4b94b0	0.79523754
50	0x3dd32863	0.103104375
51	0xbf5fa127	-0.87355274
52	0xbc71ef62	-0.014766546
53	0xbf4e649f	-0.80622286
54	0x3f106b6b	0.56413907
55	0x3fec2f38	1.845191
56	0xbd303cab	-0.043026607
57	0xbf6050dd	-0.8762339
58	0xbf597340	-0.8494148
59	0xbf9874aa	-1.1910603
60	0xbee43c7a	-0.4457739
61	0xbd21f846	-0.039543413
62	0xbf9d9bf4	-1.2313218
63	0xbf82bc90	-1.0213795

fc2.weight f4 [64, 64]
0	0xbe802b77	-0.2503316
1	0x3eb0d1a7	0.34534952
2	0xbef27cdd	-0.47360888
3	0xbf0ecdfe	-0.5578307
4	0x3d7919c7	0.0608156
5	0x3e0c3281	0.1369114
6	0xbed36ef9	-0.41295603
7	0xbc997506	-0.018732559
8	0xbe6f8497	-0.23390423
9	0xbef342be	-0.47511858
10	0x3e6970e5	0.22796972
11	0xbe8f6795	-0.28008714
12	0x3d38f033	0.045150947
13	0xbe82286a	-0.25421458
14	0x3e113f51	0.1418431
15	0x3e507158	0.20355737
16	0xbf5d516f	-0.8645238
17	0xbf94a127	-1.161168
18	0x3e101b8b	0.14073007
19	0xbe1acfcd	-0.15118332
20	0xbee1a0f2	-0.44068104
21	0xbf8b6eca	-1.0893185
22	0x3eabc347	0.33547422
23	0xbe8e8dbd	-0.27842513
24	0x3e86f8be	0.2636165
25	0x3d1d5f46	0.038420938
26	0xbf49d1a0	-0.7883549
27	0xbf2c6138	-0.67335844
28	0xbf1f3b26	-0.6219963
29	0x3eb1a3b7	0.34695217
30	0xbc98601e	-0.01860052
31	0xbd606acc	-0.05478935
32	0x3f41a09a	0.75635684
33	0x3f77f6bc	0.9686086
34	0xbf255aae	-0.6459149
35	0x3f1b62a3	0.6069738
36	0xbe8710e8	-0.26380086
37	0xbf01a60d	-0.50644
38	0xbc1a77f7	-0.009428016
39	0x3ebaed1c	0.36509025
40	0x3f11ec10	0.5700083
41	0xbe2ff223	-0.17182212
42	0x3f759877	0.9593577
43	0xbf0b5ac7	-0.5443539
44	0xbf3c75b9	-0.7361713
45	0xbe1b020b	-0.15137498
46	0xbf2590a0	-0.64673805
47	0xbf6b0875	-0.9180978
48	0xbe16fc54	-0.14744693
49	0xbf88ac3c	-1.0677562
50	0x3f569681	0.838234
51	0xbeedbba9	-0.46432236
52	0xbf047ca5	-0.5175269
53	0xbe0e7d0a	-0.13914886
54	0xbf265619	-0.64975125
55	0xbef3beea	-0.47606593
56	0xbfda04b0	-1.703268
57	0xbf199933	-0.5999939
58	0xbef37972	-0.47553593
59	0xbef19aae	-0.47188324
60	0x3effbbf3	0.4994808
61	0x3e6bd8de	0.23031947
62	0xbd653271	-0.055956308
63	0x3f43ed7d	0.76534253
64	0xbde7c7e2	-0.113174215
65	0xbd35626e	-0.044283323
66	0xbe98cd64	-0.298442
67	0x3f0e686c	0.55628085
68	0x3d1b75de	0.037954204
69	0xbf178b18	-0.59196615
70	0xbe8b3355	-0.271876
71	0x3e72d897	0.23715435
72	0x3e3b79b3	0.18308143
73	0x3e123426	0.14277706
74	0x3f25241b	0.6450822
75	0xbebc0be9	-0.36727837
76	0xbdf40ee0	-0.119169
77	0xbe3ce7ff	-0.18447874
78	0x3eed733e	0.46376985
79	0xbe99302b	-0.29919562
80	0xbece0716	-0.4023978
81	0xbde5cdd4	-0.11220899
82	0xbf7d2e53	-0.9889881
83	0x3e072e95	0.13201363
84	0xbdec892f	-0.11549603
85	0xb9b55749	-0.00034588043
86	0xbcdcbc4d	-0.026945258
87	0xbdf05f40	-0.117369175
88	0x3e852ef8	0.26012397
89	0xbee45aa1	-0.44600394
90	0x3f069870	0.5257635
91	0x3dc3ae67	0.09554749
92	0xbf316dca	-0.6930815
93	0xc02475c6	-2.5696883
94	0xbf1c4afa	-0.61051905
95	0xbea0d108	-0.31409478
96	0x3827afe0	3.99797e-05
97	0x3ec76cfa	0.3895033
98	0xbf17732c	-0.59160113
99	0xbf77a79b	-0.9674012
100	0xbdc8d41d	-0.098060824
101	0xba6eca1f	-0.0009109098
102	0xbf54e77d	-0.83165723
103	0xbd952ad2	-0.07283558
104	0xbd37040a	-0.044681586
105	0x3ded1d4e	0.11577855
106	0xbe234f99	-0.15948333
107	0xbf069f3a	-0.5258671
108	0xbf3590e7	-0.7092423
109	0xbe7b639a	-0.24549714
110	0x3f885753	1.0651649
111	0xbb8995ea	-0.0041987794
112	0xbe61faa1	-0.22068264
113	0xbf666821	-0.9000264
114	0xbe74ad56	-0.23894247
115	0x3dd94935	0.10609666
116	0x3e94e38b	0.29079852
117	0x3da5ca69	0.08095247
118	0xbece80e0	-0.403327
119	0xbe4054c3	-0.18782334
120	0xbefdc95c	-0.49567688
121	0xbc31278f	-0.010812654
122	0xbf4e635d	-0.80620366
123	0xbdff0964	-0.12452963
124	0x3d6cb1d8	0.057786793
125	0x3ea5366f	0.32268092
126	0xbde4a1ed	-0.111636974
127	0xbf352d1c	-0.70771956
128	0xbc91dcdb	-0.017805507
129	0xbf2b3cc5	-0.668896
130	0xbe9b2e7b	-0.303089
131	0xbd0764d1	-0.03305513
132	0xbe07d9bc	-0.13266653
133	0x3b706757	0.003668269
134	0x3eb2d82f	0.3493056
135	0xbd01027c	-0.03149651
136	0xbf02c502	-0.5108186
137	0xbe5fa681	-0.2184086
138	0xbf06714f	-0.52516645
139	0xbeef8b2b	-0.46785864
140	0xbe0a9a8f	-0.13535522
141	0x3ebfbf78	0.37450767
142	0x3c820ccb	0.01587524
143	0x3dbbe62f	0.091747634
144	0x3d4f8411	0.050663058
145	0x3e296610	0.1654284
146	0xbe99582e	-0.29950088
147	0x3d3d04bc	0.046147093
148	0xbe29322d	-0.16523047
149	0xbedefcf4	-0.43552363
150	0xbf4eb0e2	-0.8073865
151	0x3e969dae	0.29417175
152	0x3e2522c9	0.1612655
153	0xbeca464a	-0.3950675
154	0xbe4dcb78	-0.20097148
155	0x3d5a2a4b	0.05326299
156	0xbd3e6c8a	-0.04649023
157	0x3e7fa426	0.24964961
158	0xbef14369	-0.47121742
159	0xbdeb551f	-0.11490845
160	0xbf7baf5d	-0.9831446
161	0x3eaa0ce7	0.3321297
162	0xbe9769a2	-0.2957278
163	0x3eee634a	0.46560127
164	0x3e83c0dc	0.25733078
165	0x3de8dc9a	0.113702014
166	0xbf623700	-0.88365173
167	0xbed6ad61	-0.41929153
168	0xbca89f90	-0.020583898
169	0xbf235350	-0.63799
170	0x3eaabe0c	0.3334812
171	0xbe45c95c	-0.19315094
172	0x3d0f16d2	0.034933873
173	0xbe15a8a3	-0.14615111
174	0xbe84153a	-0.25797445
175	0x3e419a11	0.18906428
176	0xbdc30e6c	-0.09524235
177	0x3d947c96	0.072503254
178	0xbd7b3973	-0.061334085
179	0xbfb4cd85	-1.412522
180	0xbee866ab	-0.4539083
181	0xbfa105e8	-1.2579927
182	0x3e2c9cb4	0.16856652
183	0x3ed88fc7	0.42297193
184	0x3ca50c2c	0.020147406
185	0xbf0753be	-0.52862155
186	0xbf6fd9aa	-0.93691504
187	0xbe14d3e4	-0.14533955
188	0x3e86d1bf	0.263319
189	0xbe62a534	-0.22133332
190	0xbe5c6ed4	-0.21526653
191	0xbd6c6dc0	-0.057721853
192	0x3ce6c5c9	0.028170483
193	0x3d6a9d0b	0.057278674
194	0xbe525777	-0.20541178
195	0x3e49803a	0.19677821
196	0x3e040037	0.12890707
197	0xbe506dcc	-0.20354384
198	0xbe31d328	-0.17365706
199	0xbe8ea536	-0.2786042
200	0xba43ac5a	-0.0007464342
201	0xbc2ab0c8	-0.0104181245
202	0xbe7eff1c	-0.24902004
203	0x3debe2b4	0.115178496
204	0x3d082982	0.03324271
205	0xbc863427	-0.01638229
206	0xbe553d08	-0.20824063
207	0xbe5dd5ca	-0.21663585
208	0x3d9a645d	0.07538674
209	0x3e0e46bb	0.13894169
210	0xbe392202	-0.18079379
211	0xbe10bacb	-0.14133756
212	0xbe38813f	-0.18018053
213	0xbe3b05d4	-0.18263942
214	0xbccc454f	-0.024935393
215	0xbdda211a	-0.10650845
216	0x3d2f1ab9	0.042750094
217	0xbdd0f7df	-0.10203528
218	0xbdbf1bdb	-0.09331485
219	0x3c0d2e1e	0.008616952
220	0xbe05630a	-0.13026062
221	0x3e43da52	0.19126251
222	0xbeb27c67	-0.34860536
223	0xbdf6fc17	-0.12059801
224	0xbe821eb2	-0.25414044
225	0xbe182287	-0.14856921
226	0x3cbadaeb	0.022809466
227	0xbe10701a	-0.14105263
228	0x3dc6c8b6	0.09706251
229	0x3e3bb257	0.1832975
230	0xbdfe6b68	-0.1242283
231	0x3df01db4	0.117244154
232	0xbe59523b	-0.21222775
233	0xbe6331a9	-0.22186913
234	0xbdbf62a6	-0.093449876
235	0xbd1adf60	-0.037810683
236	0x3d042896	0.03226527
237	0x3d8b9992	0.068164006
238	0x3d7b5f2f	0.06137007
239	0xbcdae704	-0.026721485
240	0x3e47aded	0.19499941
241	0xbdb35b86	-0.08757691
242	0xbe05da91	-0.13071658
243	0xbe963ff6	-0.29345673
244	0x3ca75e1d	0.020430619
245	0xbeb86778	-0.3601644
246	0xbe0f72ae	-0.1400859
247	0x3c1b1bcc	0.0094670765
248	0x3d8ab75e	0.06773256
249	0xbe1bed72	-0.15227297
250	0x3c951aae	0.018201198
251	0x3cda7f78	0.02667211
252	0xbe523c1c	-0.20530742
253	0xbcc2274e	-0.023700383
254	0x3d5cd427	0.05391326
255	0xbcee46b7	-0.029086454

fc2.bias f4 [64]
0	0xbf7b3b2c	-0.98137164
1	0x3eb0a6e4	0.34502327
2	0x3f9c6721	1.2218972
3	0x3e575c52	0.21031311
4	0xbf8448ab	-1.0334677
5	0xbfbda7c3	-1.4816822
6	0xbfbe191b	-1.4851412
7	0x3ee85d44	0.45383656
8	0xbfa5a042	-1.2939532
9	0xbfd74a25	-1.6819502
10	0xbfadbbc4	-1.3572927
11	0xbe1c22bc	-0.15247625
12	0xbfd3ac17	-1.6536893
13	0xbfa67d1d	-1.3006932
14	0x3f8083a1	1.004017
15	0xbf4dbae0	-0.80363274
16	0xbf8f89df	-1.121395
17	0xbe587444	-0.21138102
18	0xbf7a0a3a	-0.97671854
19	0xbe2b0df1	-0.16704537
20	0xbfd85770	-1.6901684
21	0x3f02da23	0.511141
22	0xbf98bb91	-1.1932241
23	0x3f691906	0.9105381
24	0xbfc4178a	-1.5319684
25	0x3f88ef15	1.0697962
26	0xbef6c63e	-0.48198122
27	0x3f1bb08f	0.6081628
28	0xbf92896f	-1.1448191
29	0xbfda10c3	-1.7036365
30	0xbf9fac91	-1.2474538
31	0xbe1a4d8f	-0.15068649
32	0xbf927b89	-1.144395
33	0x3b20bb07	0.002452554
34	0xbf7cc9d8	-0.9874549
35	0x3f1dda4d	0.61661226
36	0xbfcaaded	-1.5834328
37	0xbfbe048a	-1.4845135
38	0xbfc07fad	-1.5038964
39	0xbfb2a4af	-1.3956507
40	0x3f8314cd	1.0240723
41	0x3f027808	0.50964403
42	0xbf948896	-1.1604183
43	0xbfb1e216	-1.3897121
44	0x3f9bf3c3	1.2183765
45	0xbf722950	-0.9459429
46	0x3f0d4b65	0.5519317
47	0x3f7fe034	0.9995148
48	0xbfcb11d2	-1.5864813
49	0xbfa22efa	-1.2670586
50	0xbe3123ff	-0.17298888
51	0xbfbb14a7	-1.4615678
52	0xbfc6f240	-1.5542679
53	0xbf7aab08	-0.9791722
54	0x3f056c0f	0.5211801
55	0xbf8b9bc7	-1.0906914
56	0xbfb5dcee	-1.4208047
57	0x3e04f397	0.12983547
58	0xbe383c07	-0.17991649
59	0xbef71176	-0.4825551
60	0xbfadb925	-1.3572127
61	0xbf727ed7	-0.9472479
62	0xbeb8fb65	-0.361293
63	0x3f48821a	0.7832352

fc3.weight f4 [1, 64]
0	0xbf5852c9	-0.8450132
1	0x3e1b43a3	0.1516252
2	0x3eacdedd	0.3376378
3	0x3ada8be0	0.0016673766
4	0xbefdfbf8	-0.496063
5	0xbf305c7d	-0.68891126
6	0xbf3fe593	-0.7495968
7	0x3b46dbb3	0.0030343353
8	0xbf4e31e2	-0.80544865
9	0xbf6002df	-0.8750438
10	0xbf46d6a0	-0.7767124
11	0xbc96d0b7	-0.01841007
12	0xbf4ab1c8	-0.7917752
13	0xbefd7eba	-0.49510747
14	0x3d8f9dad	0.07012496
15	0xbf3b96cc	-0.7327697
16	0xbf7ba6dc	-0.9830148
17	0x361985f9	2.287676e-06
18	0xbef8bf32	-0.4858337
19	0xbd01cf86	-0.03169205
20	0xbf1bd5af	-0.6087293
21	0x3d2d7231	0.04234523
22	0xbf14e6c4	-0.5816462
23	0x3e18ff33	0.14941101
24	0xbee9138d	-0.4552273
25	0x3e8ff860	0.28119183
26	0xbe60d71e	-0.2195706
27	0x3ddaf24f	0.10690748
28	0xbf0bdc16	-0.546327
29	0xbf3d0987	-0.7384266
30	0xbf37cddb	-0.71798486
31	0xbb308dd5	-0.0026940007
32	0xbf204bbb	-0.62615556
33	0x3e8dbeb0	0.27684546
34	0xbf269901	-0.65077215
35	0x3c8fd8fb	0.017559519
36	0xbedbf533	-0.4296051
37	0xbf24d25b	-0.64383477
38	0xbefaf562	-0.49015337
39	0xbed26a6c	-0.41096818
40	0x3d62148a	0.05519537
41	0x3c233b22	0.009962829
42	0xbf06247f	-0.5239944
43	0xbf6305f8	-0.8868098
44	0x3e6b42fd	0.22974773
45	0xbe83a848	-0.25714326
46	0x3dafb78f	0.08579933
47	0x3d985f21	0.074400194
48	0xbf6d8499	-0.9278045
49	0xbf1b405f	-0.606451
50	0xbd572754	-0.05252774
51	0xbecc86a0	-0.3994646
52	0xbf5a1616	-0.8518995
53	0xbf06d290	-0.5266504
54	0x3ca44aa0	0.020055115
55	0xbe25826b	-0.16163032
56	0xbe98437e	-0.29738992
57	0xbb13b62b	-0.0022539
58	0xbb2cc043	-0.0026359714
59	0xbe938a82	-0.2881661
60	0xbf772017	-0.9653334
61	0xbec0147a	-0.37515622
62	0xbcb240d7	-0.021759434
63	0x3d774b2d	0.060374428

in_fn.weight f4 [8]
0	0x3efb1e96	0.49046773
1	0x3f1aca39	0.6046482
2	0x3ef6034c	0.4804939
3	0x3f0b9d0f	0.5453653
4	0x3ef007bf	0.4688091
5	0x3f0f2809	0.55920464
6	0x3f089327	0.53349537
7	0x3f09ee2d	0.5387905

in_fn.bias f4 [8]
0	0xbd510608	-0.051031142
1	0xbda81bc5	-0.082084216
2	0x3da3ac91	0.07991899
3	0xbd3f575d	-0.046714175
4	0xbd14ed66	-0.036359213
5	0xbdb8694a	-0.09004457
6	0xbcab6b39	-0.020925151
7	0xbdde7266	-0.108616635

in_fn.running_mean f4 [8]
0	0xbd319e8c	-0.043364093
1	0xbc42fa61	-0.011900515
2	0xbd38a242	-0.045076616
3	0xbd243be2	-0.04009617
4	0xbd0885c1	-0.033330683
5	0xbd65dcd9	-0.05611882
6	0xbdadb7b9	-0.08482308
7	0xbdcefed2	-0.10107197

in_fn.running_var f4 [8]
0	0x3ea0ae2f	0.31382892
1	0x3ea77178	0.32703757
2	0x3ea06e87	0.31334326
3	0x3ea0143b	0.31265435
4	0x3efcb766	0.49358672
5	0x3f1c8c8d	0.61151963
6	0x3ef6b222	0.4818278
7	0x3eaa9e79	0.3332403
